GPU_Training_ImageClassification/mnist-logistic-gpu.pth (torch, 103199 bytes, 4 tensors)

linear1.weight f4 [32, 784]
00000000: f206 0dbd cec8 49bc d832 423c 3c54 d0bc
00000010: 9bc9 01bd 9129 0a3d 5371 c0bc e12a 0a3d
00000020: 2860 953c 74c0 043c c8e5 c4bb 2093 f13b
00000030: 929f 243c 2fda 813c 64dc 83ba 0f11 a0bc
00000040: 007e 35bc 88ed b03c 14ee 913c d6cf f13c
00000050: 9ca3 b0bc 525f 1cbc e0be 413b d0f3 4d3c
00000060: 4028 17bc a096 f13a 5163 093d 888a b2bc
00000070: 6327 0b3d 8887 d63b cc66 85bc 3cb1 14bc
00000080: 4e4a 953c ebc4 e73c 568d d33c 5f7c 2f3c
00000090: 1da8 10bc 8f24 123d 243c 32bc c934 933c
000000a0: 5b5b 7ebc 7350 eb3c 021c b73c ed76 cc3a
000000b0: af47 4fbd 38b3 94bc 8fe8 b9bc 2557 54bc
000000c0: 19a7 83bc bb91 d8ba ba2d 1d3c 4cf3 1b3c
000000d0: 75fc bebc 7ed8 dabc 6a1e e43c c062 aabb
000000e0: b416 753c 586a c13c 909d e73c 6b1a c03b
000000f0: fd61 00bd 0297 6ebc f85e dc3c 73a5 503c
00000100: 5e10 2d3d 8f25 5c3d ea53 623d 392b ea3c
00000110: 3893 133d b98f 083e eaad 193e 9737 5a3e
00000120: cd71 363e 7672 f03d 0568 c93d 6920 dc3d
00000130: e097 943d 0a7a 8e3d 4c03 573d 9f89 56bc
00000140: 989c 98bc 5ce9 7cbc c00c 8d3b 7c91 ddbc
00000150: 4c36 a43c c802 d5bc 5295 033d b5ae a53c
00000160: be8b ff3c 28ed 113c 770c fc3c d8e9 8a3d
00000170: 6140 03bc 6acc 833d 4245 3d3d 5fb9 94bc
00000180: 0bdc 273d fe86 8e3d 1d16 b03c ee42 373e
00000190: d4ed f13d 34de ab3d 4465 b53d 1a98 2c3e
000001a0: 87d9 a4bd e110 583d 2550 69bc 9502 e03c
000001b0: efd2 d63b 3a15 49bd da94 173c 9706 8abc
000001c0: 0caa c0bc dffb 253c 2828 7f3b 2ee3 a83c
000001d0: 4aca db3c fb9a 623d cca1 213d a353 b53d
000001e0: 597b f93d 1d20 473e 5e5b c43d 6845 5e3d
000001f0: fbdc 043e 9b6f 0e3e 7f76 583d a217 6a3d
00000200: 2031 993e 03bf 053e 428f e03c 9f51 883e
00000210: f41c dd3d 72aa 0a3e e24f cc3d c84c 273d
00000220: 4c88 54bd 172b d5ba a57a e7bc da6c 1e3d
00000230: c8b3 c93c e4ed cabb 1ac1 0bbd 8b94 d4bc
00000240: a613 4d3d b86b 093e 72f3 003e 2713 b13d
00000250: 1b80 bb3d bc68 153d 94c3 0cbe a8d8 3ebe
00000260: d30a dc3d 85f2 733c 4c1d 883e 41b0 f03d
00000270: 3854 893e 6f7e 8d3e dfbc f23c 59ae f53c
00000280: 26c9 c0bd 27d2 c43d d215 9b3d 2ffe 063e
00000290: ad3e b63d bcde 1f3d bb88 743d b1ab a0bc
000002a0: 7e08 f7bc 7ba7 543c 756c c4bc 18ba 0d3d
000002b0: e5c0 3b3c 77d5 163e e2ea 803d a4fe 833c
000002c0: 9335 8dbd 8696 bd3c 21d3 3ebe de8f 5fbe
000002d0: 0a39 9f3d 608c 66bd 3edd e5bb 0025 413e
000002e0: 5a56 49bd 24f7 1cbe a2d5 1ebe 6003 f83d
000002f0: d460 6abe 6168 9bbe b1a6 86bd 7fba 043d
00000300: 5091 643d a87d 313c 8f15 f2bb d17e e63c
00000310: 95f5 f3bc 8144 053d 1eb4 35ba 1e77 9f3c
00000320: 419d 42bc a39d 46bb 3fab 9cbd 8b81 da3b
00000330: b594 63be d220 e2bd 652e 52be 0086 0bbe
00000340: 9eb1 46bb b630 cd3c baaf 4d3e d0b1 523e
00000350: 368a 5b3c 6474 e13c 33eb 13be eb67 44bd
00000360: 96e4 edbd 60ac 90be 1892 59bd 2a80 05be
00000370: 3c9b 89bd d007 0ebd 5620 4f3c 9147 1c3d
00000380: 1a59 af3b 58b9 613b 7509 f13c fe97 0fbd
00000390: c1c1 513d c444 3f3d 7657 3ebd d316 c53d
000003a0: af65 abbe 844e 59be 7534 39be f4cf 31be
000003b0: e840 d5bc 9516 afbb c55d 20bd c7e6 983d
000003c0: 776d cfbd 7d74 9cbb b16b 22be 6d0e 583c
000003d0: 69dc 61be 3a99 36be 3b59 f4bd 369b 1abe
000003e0: b48c a4bd 17a8 1abd b0da ae3c bc4b 2f3b
000003f0: a4f0 8fbc b8b2 773c b69e a23c c7a5 80bd
-0.03443045 -0.012315942 0.011852942 -0.025430791 -0.031686407 0.033731047 -0.023491537 0.0337323
0.018234327 0.008102525 -0.0060088374 0.007372275 0.01004781 0.015851108 -0.0010060188 -0.019539384
-0.011077404 0.021597639 0.01781372 0.02951805 -0.02156239 -0.0095442105 0.0029563233 0.012570336
-0.009225905 0.001843173 0.03354198 -0.021794572 0.03397311 0.0065469183 -0.016284369 -0.009075459
0.018223908 0.02829214 0.02582423 0.010710805 -0.008829144 0.035679396 -0.010878596 0.017969506
-0.0155247105 0.028724885 0.022352222 0.0015599407 -0.050605472 -0.018151864 -0.0226939 -0.01296023
-0.01607089 -0.0016522923 0.009593422 0.009518456 -0.02331374 -0.02671456 0.027846534 -0.00519976
0.014959026 0.023610279 0.028273374 0.0058625243 -0.03134345 -0.01456237 0.026900753 0.012734759
0.042251937 0.053746756 0.055255808 0.028585063 0.03602907 0.13336076 0.15007749 0.21310268
0.17816849 0.11740582 0.09834293 0.10748369 0.0725553 0.06956871 0.05249338 -0.013094335
-0.018629357 -0.015436497 0.0043044984 -0.027046911 0.020045422 -0.026002303 0.032124825 0.020224908
0.031194564 0.00890664 0.030767662 0.067828834 -0.008010955 0.06435473 0.046208628 -0.018154798
0.040981334 0.069593415 0.02149492 0.17896625 0.1181294 0.08391991 0.088572055 0.16854897
-0.080493025 0.052750472 -0.014240299 0.027344981 0.006555907 -0.04909251 0.009251798 -0.016848845
-0.023518585 0.0101308515 0.0038933847 0.02061614 0.026829857 0.055323582 0.039460942 0.08853843
0.1218173 0.19445844 0.095877394 0.05426541 0.12974922 0.13909762 0.05284738 0.057151444
0.29920292 0.13061146 0.02741206 0.26624772 0.10796538 0.13541582 0.09976174 0.04084471
-0.051887795 -0.0016263452 -0.028256724 0.038678028 0.02462186 -0.0061929096 -0.034119703 -0.025949737
0.050067566 0.13419998 0.12592867 0.08646231 0.091552936 0.036476836 -0.13746482 -0.18637335
0.10744252 0.014889364 0.26584852 0.11752368 0.26822066 0.27635524 0.029631076 0.029990362
-0.09413366 0.09610396 0.07572521 0.13182901 0.08898673 0.039030775 0.05970071 -0.019613119
-0.030155417 0.012979384 -0.023977498 0.0346013 0.011459564 0.14729868 0.062948 0.016112633
-0.06894984 0.023143064 -0.18635227 -0.21832225 0.07774551 -0.056286216 -0.0070148995 0.1886177
-0.049154617 -0.15328652 -0.15511182 0.12110019 -0.228885 -0.30353072 -0.065747626 0.03240442
0.055802643 0.010833181 -0.007387824 0.028136643 -0.029780189 0.032536034 -0.00069314416 0.01946598
-0.011878313 -0.003030636 -0.0764985 0.0066682748 -0.22224696 -0.11041416 -0.2052551 -0.13625336
-0.003031827 0.025047641 0.20086566 0.20575643 0.013399651 0.02752132 -0.1444519 -0.047950666
-0.11615865 -0.28256512 -0.05311784 -0.13037172 -0.06719062 -0.03467542 0.012641987 0.03815419
0.005351198 0.003444275 0.029423455 -0.03505706 0.05121017 0.04669644 -0.046470128 0.09623494
-0.33476016 -0.21221358 -0.18086417 -0.17364484 -0.026031926 -0.005343268 -0.039151926 0.07465892
-0.10128301 -0.0047746287 -0.15861394 0.013187033 -0.22056736 -0.17831889 -0.11931082 -0.15098271
-0.080346495 -0.03775796 0.021344513 0.0026748022 -0.017570801 0.015118293 0.01985107 -0.062816195

linear1.bias f4 [32]
00000000: 4b17 b03e 1a39 113e 19b0 20bd dd4f 34be
00000010: 5350 ed3e bb59 b73e 3d7b 90bd 75df e2be
00000020: a320 f1bd 4308 4e3d bee2 c83d 6f58 ee3d
00000030: b3d7 633c 46a5 163d 24a2 8d3e 045a 48bf
00000040: f811 623e 63a6 4dbe 2336 8b3d 6147 993e
00000050: 79f3 103c 4fd9 45be 2a68 bbbe d9c8 9d3e
00000060: d25a 293e 54e1 c33e d330 8f3e 18e9 b7bc
00000070: 6ef5 90bd 85af e53e eccb 803e 1f8a 0dbf
0.3439277 0.14181939 -0.03923044 -0.1760859 0.46350345 0.35810646 -0.07054756 -0.4431111
-0.11773803 0.050300848 0.09808873 0.11637961 0.013906407 0.03677871 0.27662766 -0.7826235
0.22077167 -0.20083003 0.06797435 0.2993727 0.008847111 -0.19321178 -0.36602908 0.30817297
0.16538551 0.3825785 0.27966937 -0.022450015 -0.07078062 0.44860473 0.2515558 -0.5528888

linear2.weight f4 [10, 32]
00000000: 6b22 e0bf 6705 2ebf 4caa 753d dcf9 36bf
00000010: 7a95 8d3e f476 82be d269 c23e 0749 9dbe
00000020: f858 b43f 6b46 993e 37f5 41bf 478c fd3e
00000030: ea33 20be c3f3 3cbf 63b8 01bf 139c 8dbf
00000040: a0f8 113e 6114 7f3f a093 27bf 99e4 acbf
00000050: 0fd1 ae3e 68d7 7d3f be4a d03e b7de 9e3f
00000060: 25a9 223f a3e6 0d3e 16c1 833e d015 88bf
00000070: 4265 3cbf c5db 07bf 974f c33f 7164 613e
00000080: 72d2 883f 7725 873e 7694 39bf 32f4 853e
00000090: e8ca e9be 54cf 92be 9706 ce3e e035 acbf
000000a0: 7928 8a3e d83e 28bf d948 5c3e 81dc f8bd
000000b0: 8832 a8bd c663 043f 87ca 3f3f aee9 f23e
000000c0: d134 e63f cb59 24be 5322 953f 9e5b 4abf
000000d0: 435d 40be 171d 2c3d 024c bfbf 6c93 e7be
000000e0: b8eb e0be 58fc b13c 5084 2abf e3d9 99bf
000000f0: fdd2 b53e e66b 5e3f bc23 82bf dbc4 c63e
00000100: 9140 d93e 3048 9fbe 8f69 a3be a133 c53f
00000110: 0ca6 23be 0318 833f afd2 25bf 7ba6 3ebf
00000120: 168b 983f b8d0 d83f 56f9 0a3f b7fb 653f
00000130: a5b9 3c3e 07e7 7ebf a15e 23c0 3618 823f
00000140: c9f2 8ebb 2db4 0c3f e36d 533d 2daa ad3e
00000150: 9857 bbbf 8162 54bd 6187 b53f 488b 8a3f
00000160: f532 35bf 29d6 653f 1e7f dbbf 6d06 6fbf
00000170: 6338 95be 1f02 713f eba8 b53e 4955 6f3f
00000180: a320 8fbe 5a46 613f 3509 e2bf 461d fbbe
00000190: 4c9b e5bf 280b 413f b29c f03f 418b 983f
000001a0: 59e0 983c 6727 12bf 4fa2 34bf d88d 13bf
000001b0: a0fe 97be 4bc6 873e e59d 253f 8be6 db3f
000001c0: 8cd7 d0bf 101d 093f 0632 d1bd aed3 a53f
000001d0: 28bb cebf 141c 2bbf c158 af3e 9d25 fbbe
000001e0: 9cdc 54bf 11ff 4f3f 8851 90be 445c ae3f
000001f0: 2484 8f3f 3349 01bf 6b69 a5bc 97f4 853f
00000200: ad14 073f 9336 57be 8a16 263f 04b9 72bf
00000210: 887d 353f 1d71 31bf d17c c0bf 3837 81bf
00000220: 52d2 16c0 54c9 d1bd 48fb 8c3f 567d 323f
00000230: 375b d8be d53f cd3f c656 af3f 78e1 abbf
00000240: de0d a13e 4432 38bf 86e9 91bf 3d3b 203f
00000250: 1876 83bd 0461 813f 62fa 66bd 7109 1dbd
00000260: c03f 2cbf 03fd 80bd ab66 8e3f c172 44be
00000270: 9f69 70bf b750 cfbc fd10 08c0 150d a5bf
00000280: 2583 80be d1e7 463f 2448 0b3f 9a78 8c3f
00000290: a3e4 af3f 82ef 90be 7881 93be c86c f43f
000002a0: d6c7 a4bc 6426 9ebe e70b 933f e56d 2e3f
000002b0: e09e 42be a8e2 47bf e529 ef3e 6d34 9fbe
000002c0: 9dba b53e a49e 7abf 8347 9d3e 61b6 0d3f
000002d0: 262c 543f 934f 06bf 6eb7 07bf a2ac 2bc0
000002e0: 3b73 87bf 2b47 4c3f 9d00 203f 4496 a73f
000002f0: dd06 0340 8378 f2be a0f7 523d 8ba3 c9bf
00000300: 4313 6d3f 2e19 123e 96e8 a03f 351f 683f
00000310: 4ed9 8fbf dc68 c5be f379 21bf daa5 dc3e
00000320: 3301 a43e f9d7 6f3f f071 5d3e e84c f03d
00000330: d4b7 353e 6547 cabe 359a 56bf 00fb 9dbe
00000340: 7980 48be 1bc1 6a3f 932e 82bf d464 0bc0
00000350: 0bda ce3f ca44 9d3d bec4 b1bf 23c7 c9be
00000360: 13ef 9c3f 6453 043e 412a 32be 78b5 16bf
00000370: 8933 96bf aeeb 313f ea7f 4f3f 6387 38bf
00000380: d1b3 3b3f d978 16c0 f281 62be 8cf4 0d3f
00000390: 16e6 2d3f feb6 0fbf a405 1a3f 136c 19bf
000003a0: 491c 8cbc a024 eabf 3673 c0bd ef59 b2be
000003b0: 49e1 da3e 2897 6ebf f04e 513f 829d 0140
000003c0: 9276 113f 7119 b03f d2a6 1ebf 096b 813f
000003d0: e992 25bf e699 c3be 74bf 163e 9903 f53e
000003e0: 1585 743e 871f 8ebf 6cb4 1a3f c72e c53e
000003f0: 24bf 0a3e 0ed1 cc3f 71ec cebe ec89 013f
-1.7510504 -0.67976993 0.05997686 -0.71475005 0.27653104 -0.2548138 0.3797136 -0.30719778
1.4089651 0.29936537 -0.75764793 0.49521086 -0.15644804 -0.7380945 -0.50671977 -1.1063255
0.14254999 0.9964047 -0.6545963 -1.3507262 0.34143874 0.9915681 0.40682024 1.2411717
0.63539344 0.13857512 0.2573325 -1.0631657 -0.7359201 -0.53069717 1.5258664 0.22010972
1.0689223 0.2639577 -0.7249216 0.2616287 -0.45662618 -0.28673804 0.40239403 -1.3453941
0.26984003 -0.6572089 0.21512164 -0.12151433 -0.08212763 0.5171474 0.7491841 0.47443908
1.7984868 -0.16049878 1.16511 -0.79046047 -0.18785577 0.04201993 -1.4945071 -0.4522966
-0.4392984 0.021726772 -0.6660814 -1.2019619 0.35512534 0.8688339 -1.0167155 0.38822064
0.42432073 -0.31109762 -0.31916472 1.5406381 -0.1598131 1.0241703 -0.647746 -0.7447278
1.1917446 1.6938696 0.54286706 0.8983721 0.18430193 -0.9957127 -2.5526507 1.0163639
-0.0043624383 0.54962426 0.051618468 0.33918896 -1.4636106 -0.051851753 1.4181939 1.0823755
-0.7078088 0.8977991 -1.7148168 -0.9336918 -0.29144582 0.9414386 0.35480437 0.9348951
-0.27954587 0.8799797 -1.765906 -0.4904577 -1.7938018 0.7540765 1.879782 1.1917497
0.018661665 -0.57091373 -0.70560163 -0.5763831 -0.2968645 0.26518473 0.6469405 1.7179731
-1.631578 0.5355997 -0.10214619 1.2955225 -1.6150866 -0.6683972 0.342474 -0.49052134
-0.83149123 0.81248575 -0.28187203 1.3621907 1.1212201 -0.5050232 -0.020191869 1.0465268
0.52765924 -0.21016912 0.6487814 -0.9481356 0.7089467 -0.6931322 -1.5038091 -1.0094976
-2.356587 -0.102434784 1.1014185 0.697225 -0.4225709 1.6035105 1.3698356 -1.3428183
0.31455892 -0.719517 -1.1399391 0.6259039 -0.06419009 1.0107732 -0.056391127 -0.038339082
-0.67284775 -0.06298258 1.1125082 -0.191844 -0.93911165 -0.025307043 -2.126037 -1.2894617
-0.25100055 0.77697474 0.5440695 1.0974305 1.3741649 -0.2830773 -0.28809714 1.9095697
-0.02011482 -0.30888665 1.1488007 0.68136436 -0.19005919 -0.78080225 0.4671165 -0.31094685
0.35493937 -0.97898316 0.30718622 0.55356413 0.82879865 -0.5246517 -0.53014266 -2.6824117
-1.058204 0.79796094 0.62500936 1.3092732 2.047294 -0.47357568 0.051505685 -1.5753034
0.92607516 0.14267418 1.257098 0.9067262 -1.1238191 -0.38556564 -0.63076705 0.43095285
0.32032165 0.93688923 0.21625495 0.11733419 0.17745906 -0.39507595 -0.8382905 -0.3085556
-0.19580258 0.91700906 -1.0170463 -2.178029 1.6160291 0.07679136 -1.3888166 -0.39409742
1.226046 0.12922436 -0.17398931 -0.5887065 -1.1734477 0.69500244 0.81054556 -0.72081584
0.73321253 -2.351126 -0.22119883 0.55451274 0.6792921 -0.561386 0.60164857 -0.59930533
-0.017103331 -1.8292427 -0.09396975 -0.3483424 0.42750004 -0.93199396 0.81761074 2.0252385
0.5682155 1.3757764 -0.619733 1.011079 -0.6467729 -0.38203353 0.14721471 0.47854307
0.23878892 -1.1103371 0.6043155 0.3851225 0.13549477 1.6001298 -0.40414765 0.5060108

linear2.bias f4 [10]
00000000: 6336 0bbf 7187 133f a579 3fbe d162 9cbe
00000010: 9ca9 523d 882b 333e 0586 16be 82e9 e53d
00000020: 0a87 81be cb78 81be
-0.5437986 0.5762854 -0.18698747 -0.3054414 0.051431283 0.17497075 -0.14699562 0.11226179
-0.2529834 -0.2528747
