Logistic_Regression_ImageClassficiation/mnist-logistic.pth (torch, 32423 bytes, 2 tensors)

linear.weight f4 [10, 784]
0	0xbcf9841c	-0.030458502
1	0x3cacf02e	0.02111062
2	0x3c2377f8	0.009977333
3	0x3d019889	0.03163961
4	0xbcb3c35c	-0.02194374
5	0x3c7bac30	0.015360877
6	0xbce30ad8	-0.027715132
7	0xbd0e9880	-0.034813404
8	0x3c5ef8e8	0.013609149
9	0x3bebf8c0	0.007201284
10	0xbb920e38	-0.0044572614
11	0xbc19328a	-0.009350428
12	0xbc7a6e87	-0.015285141
13	0x3d0bd8fa	0.03414247
14	0xbaf9a891	-0.0019047429
15	0xbb3f77ed	-0.0029215768
16	0x3a873ec0	0.0010318384
17	0xbb938c40	-0.004502803
18	0x3cfce9c2	0.030873183
19	0x3cdc1666	0.02686615
20	0x3cbd01e0	0.023072183
21	0x3c63f300	0.013912916
22	0xbcd5adf5	-0.026083926
23	0x3cc456e8	0.023967221
24	0x3cb36fa8	0.021903828
25	0x3c8c4ea4	0.017127343
26	0x3d0607cd	0.032722283
27	0xbc9f6e4c	-0.019461773
28	0x3c83489e	0.016025838
29	0xbc40171c	-0.01172426
30	0x3c9415b8	0.018076763
31	0xbc78fc20	-0.01519683
32	0xbcb37d31	-0.021910282
33	0x3a9da017	0.001202586
34	0xbbcad010	-0.0061893538
35	0xbcb4dcff	-0.022078035
36	0x3d01e068	0.03170815
37	0xbd0ce998	-0.03440246
38	0x3c93c10e	0.018036392
39	0x3c24061d	0.010011223
40	0xbb853770	-0.0040654466
41	0xbd0a0a39	-0.033701155
42	0xbbb0b1b4	-0.0053922776
43	0x3cabe1cd	0.020981694
44	0x3cc3f658	0.023921177
45	0xbcd52d99	-0.02602272
46	0x3c82362e	0.015894976
47	0xbc980202	-0.018555645
48	0xbca2fff1	-0.019897433
49	0x3c4701bb	0.012146409
50	0x3be44351	0.0069660326
51	0x3c8323fd	0.016008371
52	0x3c8d83a0	0.017274678
53	0x3b1e5c70	0.0024163984
54	0x3c69be38	0.014266543
55	0xbcc36043	-0.023849612
56	0xbd0be97b	-0.03415821
57	0x3d0a8c6b	0.03382532
58	0xbc6df46c	-0.014523607
59	0xbc924c3b	-0.017858615
60	0xbc5d8ded	-0.013522607
61	0x3d01d71c	0.031699285
62	0x3cff8d47	0.031195296
63	0x3c421db0	0.011847898
64	0x3b6430d1	0.0034819136
65	0x3c436d98	0.011927985
66	0x3cf51258	0.029915974
67	0x3bd043f2	0.006355756
68	0xbd175e4a	-0.036955155
69	0xbd0bb1d4	-0.034105137
70	0x3c90386a	0.017605025
71	0xbb91350a	-0.0044313716
72	0xbc632452	-0.01386364
73	0xbd210083	-0.03930713
74	0xb9c4549e	-0.00037447078
75	0x3ccd2055	0.025039831
76	0xbcb8a9c6	-0.022541892
77	0xbc911f8b	-0.017715236
78	0xbc3af34a	-0.011410544
79	0x3c0b3c03	0.008498195
80	0xbcc53c3a	-0.02407657
81	0xbcb4ab1a	-0.022054244
82	0xbbe474c0	-0.0069719255
83	0xbd0e456a	-0.034734167
84	0xbb35d1b0	-0.0027743392
85	0xbcb17e4e	-0.021666672
86	0xbcc7503d	-0.024330253
87	0x3cee37ea	0.029079396
88	0xbd0933bb	-0.0334966
89	0xbcfd209e	-0.030899342
90	0xbcc3f7ce	-0.023921873
91	0x3cc8a473	0.024492478
92	0xbb4312c7	-0.002976583
93	0xbc3dcafa	-0.011584038
94	0xbd0af42f	-0.033924278
95	0x3b4a3f1f	0.0030860377
96	0xbca110f7	-0.01966141
97	0xbd52d768	-0.05147496
98	0xbca9bdbb	-0.020720353
99	0xb9d47eff	-0.0004053041
100	0xbd071fe1	-0.032989386
101	0xbd86ac89	-0.06575877
102	0xbd910172	-0.07080354
103	0xbd8b41d6	-0.067996666
104	0xbccec867	-0.025242044
105	0xbd5bd976	-0.053674184
106	0xbc8fb868	-0.017543986
107	0x3ba15ceb	0.0049244068
108	0x3c8f4805	0.017490396
109	0xbb11e6ae	-0.002226274
110	0x3d0e83bd	0.034793604
111	0x3d092499	0.033482168
112	0x3cd88a26	0.026433062
113	0xbcf7bd33	-0.030241584
114	0x3d013692	0.031546183
115	0xbce39594	-0.027781285
116	0x3c7e6af8	0.015528433
117	0x3c4def5e	0.012569277
118	0x3cb2c73d	0.02182352
119	0xbcac7d53	-0.021055853
120	0x3aabb34d	0.00130997
121	0x3bc8270f	0.006108172
122	0xbc4eec3e	-0.012629567
123	0xbd22980f	-0.039695796
124	0xbcfc9752	-0.030833874
125	0x3cab917b	0.020943394
126	0xbc43ec98	-0.011958264
127	0x3c2d4627	0.010575808
128	0xbc8224df	-0.015886722
129	0xbcaa2029	-0.020767288
130	0xbcfd88b6	-0.030948978
131	0xbd307bc5	-0.043086786
132	0xbc895ff0	-0.01676938
133	0xbcc7bd46	-0.024382245
134	0xbd0e76c0	-0.034781218
135	0xbc826486	-0.015917074
136	0x3c070e29	0.008243122
137	0xbcb9f2bb	-0.02269875
138	0x3cf20ce0	0.029547155
139	0x3c4614a1	0.012089879
140	0xbccfc043	-0.025360232
141	0xbc62d2fc	-0.013844248
142	0x3d026263	0.03183211
143	0x3cff3eb2	0.031157825
144	0xbd18a506	-0.037266754
145	0xbca6c249	-0.020356314
146	0xbcdbad04	-0.026815899
147	0xbd7739a1	-0.060357694
148	0xbbc0b9c1	-0.0058815186
149	0xbd08916b	-0.033341806
150	0xbbc69fbf	-0.0060615237
151	0xbd0e9bc2	-0.03481651
152	0xbc7a7af3	-0.015288102
153	0x3d6a2589	0.057164703
154	0x3def58be	0.11686848
155	0x3dc10e25	0.09426526
156	0x3dd92110	0.10602009
157	0x3de27cc3	0.11058953
158	0x3d4041f9	0.046937916
159	0x3ce6962c	0.02814778
160	0x3b3293af	0.002724867
161	0x3c0b06f2	0.008485543
162	0xbc9149ea	-0.01773544
163	0xbd38058d	-0.04492717
164	0xbcde6709	-0.02714874
165	0xbc9d78ab	-0.019222578
166	0xbd138af7	-0.0360212
167	0x3c638953	0.013887721
168	0x3b7c0eb0	0.0038460903
169	0x3abb2be5	0.0014280049
170	0x3c72a7cb	0.014810513
171	0x3b6c1ce2	0.0036027958
172	0x3cbdb3b4	0.023156978
173	0x3c3b2792	0.0114230085
174	0xbd68ab97	-0.056804266
175	0xbd844daf	-0.064601295
176	0xbd25beb9	-0.04046509
177	0xbdbcbabe	-0.09215306
178	0x3b319031	0.0027094001
179	0xbcd5c805	-0.026096353
180	0x3c782396	0.015145203
181	0x3d61fbea	0.055171885
182	0x3dd145fd	0.10218427
183	0x3db9321d	0.090427615
184	0x3e01b543	0.12666802
185	0x3e01418a	0.12622657
186	0x3de1afab	0.11019834
187	0x3d8ced8f	0.06881248
188	0x3d800573	0.06251039
189	0x3cea1588	0.02857472
190	0xbb673b87	-0.0035283284
191	0xbc5c268a	-0.013436923
192	0xbd392caa	-0.04520861
193	0x3c73d758	0.014882885
194	0xbce33dcd	-0.02773943
195	0xbd140bf1	-0.0361442
196	0x3ce39a9e	0.027783688
197	0x3c89d37c	0.016824476
198	0x3c50987a	0.012731666
199	0xbd1ab17f	-0.03776693
200	0xbc85c0da	-0.01632731
201	0x3bcd8204	0.0062716026
202	0xbd3101bd	-0.04321455
203	0xbcc2ee2f	-0.023795215
204	0xbd27acd9	-0.040936325
205	0xbd380be7	-0.044933226
206	0x3c898c5a	0.016790558
207	0x3b3d4aba	0.0028883652
208	0x3d866949	0.0656305
209	0x3d3f1a9b	0.046656232
210	0x3d347d7b	0.04406498
211	0x3d80788a	0.06272991
212	0x3e05827c	0.13038057
213	0x3e12cc4b	0.14335744
214	0x3e0b2e37	0.13591848
215	0x3decb387	0.115576796
216	0x3d784940	0.06061673
217	0x3c141a0f	0.009039416
218	0x3d3d6a25	0.046243805
219	0xbc8ba1fc	-0.017045014
220	0xbd72f2b7	-0.059313502
221	0xbd3d1838	-0.046165675
222	0xbccf6fdb	-0.025321892
223	0xbb491dd8	-0.0030687954
224	0x3cbde491	0.023180278
225	0x3c0faf49	0.008769819
226	0x3b9a2693	0.0047043054
227	0xbc8ae9f0	-0.016957253
228	0xbd2bd6ae	-0.04195278
229	0xbcf13b94	-0.029447354
230	0xbd7abaf3	-0.061213445
231	0xbd41476b	-0.04718725
232	0xbd89a0cf	-0.06720125
233	0xbd221215	-0.039568026
234	0x3c6640e5	0.014053558
235	0xbc14842a	-0.0090647135
236	0x3cf1cf44	0.029517777
237	0x3d442f2c	0.04789655
238	0x3daa0bbb	0.08303019
239	0x3d82cb4b	0.06386431
240	0x3df55acd	0.119802095
241	0x3e11b232	0.14228132
242	0x3e0d3d3d	0.13792892
243	0x3dc3a4da	0.09552927
244	0x3d9434e5	0.07236651
245	0x3d9417c9	0.07231099
246	0x3d1bb493	0.038014006
247	0x3af7c33b	0.0018902788
248	0x3c1f4c32	0.009722756
249	0xbd115f50	-0.035491288
250	0xbcf73fab	-0.030181726
251	0x3c960a95	0.018315593
252	0x3d05ddcc	0.032682225
253	0xbce3b682	-0.027796987
254	0xbc307dcc	-0.01077218
255	0x3c1ef3ff	0.009701728

linear.bias f4 [10]
0	0xbe145486	-0.14485368
1	0x3e8175e8	0.25285268
2	0xbd1a0b26	-0.03760829
3	0xbdbc7ff1	-0.092040904
4	0x3d5b1f0f	0.053496417
5	0x3eb21cff	0.34787747
6	0xbc8d4bd2	-0.017248068
7	0x3e299ad7	0.16562973
8	0xbefef69d	-0.49797526
9	0xbd873e55	-0.06603686
